plots/2_active_learning/saves/A_acq.pth (torch, 4373 bytes, 2 tensors)

weight f4 [10, 64]
000000 8a 41 8b 3d 69 d0 81 bd 26 b9 a3 3d 68 fa 61 bc
       0.0679961 -0.06338579 0.07994299 -0.013792612
000010 a2 43 60 bd 16 d4 0b be 08 16 b6 bd ee 9b ab 3d
       -0.054752 -0.13655123 -0.08890921 0.083793506
000020 5b 7d 8a bd cf 53 e9 3a e3 91 27 bd f4 e3 93 3c
       -0.06762191 0.0017801466 -0.040910613 0.018053032
000030 dd 61 14 3e fd 6b ab 3d 5c 9a 35 bd a9 80 a5 3d
       0.14490457 0.083702065 -0.04433666 0.080811806
000040 60 40 e2 bc e4 70 a4 3d d3 04 35 3d 47 bf 1d 3d
       -0.027618587 0.08029345 0.044194054 0.038512494
000050 4c 9f 9e be 30 bd 17 3e db 36 ae 3d 65 2d c1 3c
       -0.3098091 0.14818263 0.085065566 0.023581216
000060 93 7b 1e 3d 19 53 43 3e 53 58 8f 3d 04 43 93 be
       0.03869207 0.19074668 0.069992684 -0.28762066
000070 ee 6d c1 be 55 e4 9b 3c 5a ee af 3e 98 ab b6 bd
       -0.37779182 0.019029776 0.34361535 -0.08919448
000080 20 9d 5d bc ea a1 35 3e b0 26 44 3e 75 c0 8b be
       -0.013526231 0.17737547 0.19155383 -0.2729527
000090 14 47 f7 be d2 65 0b bd 3f 9e 6d 3e cc 27 19 3d
       -0.48296416 -0.03403265 0.23204897 0.03739147
0000a0 2d 28 30 3c d1 bf 7b 3d a2 49 af 3e 50 3a 9e bd
       0.010751766 0.061462227 0.34235865 -0.07725966
0000b0 99 79 2a be e3 9e 77 3d 94 63 d2 3d 8e e4 b8 bd
       -0.16647948 0.06045426 0.10272899 -0.09027968
0000c0 d6 5e 09 3d 21 1e 79 3a 0f 55 46 3e f9 4e 38 3d
       0.03353771 0.0009503086 0.19368385 0.04499719
0000d0 65 fa aa 3c d1 8d 1a 3e b2 49 17 be 32 35 f2 bc
       0.02087135 0.15093161 -0.14774206 -0.029566381
0000e0 c2 ea 9f 3c 06 bc 85 3d c1 ce b1 bd ac 81 20 3e
       0.019521121 0.06530003 -0.08682013 0.15674466
0000f0 8c 55 2d 3d e4 b5 ea bd a3 9e 16 be 5b 46 e6 bd
       0.042317912 -0.11460474 -0.14708953 -0.11243888
000100 28 03 fa 3d 08 a3 b6 bd a7 8b a6 bd 50 89 ff bd
       0.12207633 -0.089178145 -0.08132105 -0.12477362
000110 ab ab 6f be 98 06 68 3e d0 ea b5 3d 0c 2e 11 be
       -0.2340533 0.22658765 0.088826776 -0.14177722
000120 d7 4a 57 bd bc e6 90 be 77 64 fc be fc 43 ca bd
       -0.052561607 -0.28301036 -0.492954 -0.09876248
000130 6e f2 e3 3e 5b 6d 7d bd 08 2f 9d bd 11 d9 c4 bd
       0.44520897 -0.061871868 -0.07674986 -0.09611715
000140 2f 60 3c 3d ac 81 02 3d b0 d6 f3 bd cf 7f 27 3f
       0.045990165 0.031861946 -0.11906183 0.65429395
000150 bd 06 0a 3f 3d d0 10 3d bb 01 d4 bd 05 83 de bd
       0.5391653 0.03535484 -0.103518926 -0.10864834
000160 3e 3e e4 3d f7 c6 38 3d 05 c1 86 3d a6 ce b5 3e
       0.11144684 0.045111623 0.06579784 0.35509223
000170 d8 31 89 3e 87 37 79 bd 91 93 31 bd eb 65 c5 3d
       0.2679584 -0.06084397 -0.04335362 0.0963858
000180 78 cb a9 3d bf 30 56 bd 47 5c 9c 3c f5 25 bc bc
       0.08290762 -0.05229258 0.01908697 -0.022967318
000190 5a 61 88 3d 1d a1 ce bd 6a 55 bb bd 1a af d7 3d
       0.06659193 -0.10089324 -0.09147151 0.10531445
0001a0 d2 1b 21 3c 75 76 16 be 82 23 1b be c1 90 81 3e
       0.009833293 -0.14693625 -0.15150264 0.2530575
0001b0 cb 1f 87 3e 14 a5 8b be 78 ac 5f be 5f 74 57 3d
       0.26391444 -0.27274382 -0.21843135 0.052601214
0001c0 40 0c e6 bd 47 86 7a bd 25 84 e9 bd 2f 34 cb bb
       -0.11232805 -0.061163213 -0.11402158 -0.006201289
0001d0 07 86 74 3e cc 28 1a 3d 36 87 6f be 8f 53 c7 3d
       0.23879252 0.037636563 -0.23391423 0.097327344
0001e0 b2 03 29 3d da d4 24 be e7 fb 77 bd 9c 13 ee bd
       0.04126329 -0.16096821 -0.060542967 -0.11624834
0001f0 39 9a f8 3d 7e 9c 02 3e 65 94 71 3e 7e 62 38 3e
       0.12138791 0.1275501 0.23591764 0.18006322
000200 3e 93 ff 3d ad 4c 19 3d 51 6f e4 3c f6 da 19 3e
       0.12479256 0.03742664 0.027885111 0.15024933
000210 45 92 fe 3c 7e 4f 9b bd d4 95 04 be 7a f9 82 bd
       0.031075606 -0.07583521 -0.1294778 -0.0639524
000220 c2 73 88 bd 48 61 ee 3d f2 d3 fe 3d 08 52 2d 3d
       -0.06662704 0.11639649 0.12442769 0.04231456
000230 1f 71 40 3e 6f f3 da bc 57 1f 64 3d a6 a4 84 3c
       0.18793152 -0.026727406 0.05569395 0.016191792
000240 f8 3f 79 bd 1c ae 84 3d 07 c5 50 be 90 d7 a2 be
       -0.06085202 0.06478521 -0.2038766 -0.31805086
000250 4f df 4f 3d 12 b9 0a bd 11 84 9f 3d 6d 34 7b bd
       0.050750073 -0.033867903 0.077888615 -0.061329294
000260 a0 a5 ba 3d f1 b5 3e be 6a 4c df be f6 61 c0 be
       0.09113622 -0.18624093 -0.43612987 -0.37574738
000270 01 b3 0f 3d 46 e5 ec bd fb e7 2d bb f3 4b 74 3c
       0.03508282 -0.11567168 -0.0026535976 0.014910686
000280 54 0d 70 bd 70 3e 1f be 27 b2 83 be c5 41 2c be
       -0.05860646 -0.15551162 -0.25721857 -0.16821964
000290 28 4f b3 bd 1c 33 86 be e1 6b 67 be e6 a4 d4 3d
       -0.08755332 -0.26210868 -0.22599746 0.103830144
0002a0 87 01 ed bb c8 bb 8b 3d 35 13 35 3e 65 f3 9c 3e
       -0.007232848 0.06822926 0.17683108 0.30654445
0002b0 0a 13 bb bd 83 e7 d6 be 82 05 45 be 23 cc 5c 3b
       -0.09134491 -0.41973504 -0.19240382 0.003369101
0002c0 f1 22 22 b9 05 7c c1 3d 9b 7c 43 3e 3c b0 cc 3e
       -0.0001546254 0.09447483 0.19090502 0.39978206
0002d0 c0 4a 9c 3e 09 ea 3d 3e 57 d7 4b 3e 46 c1 81 3d
       0.3052578 0.18546309 0.19906364 0.06335692
0002e0 a2 79 d5 bd 23 67 35 3e aa ed 33 3e ca 5b 3a 3d
       -0.1042359 0.17715125 0.1757113 0.045497693
0002f0 17 2f 87 3d a5 77 a7 3e f5 78 9d 3e 4b 24 42 3e
       0.066007785 0.3270847 0.30756345 0.18959157
000300 a0 02 e8 3b 71 d3 7e 3d 20 1a 21 3d b0 e3 5d 3d
       0.007080391 0.062213365 0.039331555 0.054172218
000310 6d 21 af 3e 09 51 7d 3e 71 6d d0 3c 26 93 6c 3c
       0.3420519 0.24737944 0.02544281 0.01443938
000320 dd 72 32 bd f8 de 1b 3e b0 ff 27 3c a8 71 30 be
       -0.043566573 0.15221775 0.010253832 -0.17230856
000330 0b 39 de 3d 79 92 82 3d 6e 91 fe 3d 36 8a 71 bd
       0.10850724 0.06375594 0.12430082 -0.0589697
000340 41 50 53 3d 49 d7 00 be 53 e9 c4 be a4 da 74 be
       0.051590208 -0.12582125 -0.38459262 -0.2391153
000350 c7 9f 51 3e 3f c7 71 bd 57 ec f4 3c a7 c1 8f bd
       0.20471106 -0.059027907 0.029897852 -0.07019358
000360 b3 d6 48 bc 62 3d 63 be ca 67 f6 be 79 09 e7 bd
       -0.0122582195 -0.22191384 -0.4812606 -0.11281104
000370 1b 93 56 3e e0 82 a3 be 65 cd b0 be de 58 8b 3b
       0.20954554 -0.31935787 -0.34531704 0.004252537
000380 c0 a9 72 bb 37 1e 0f be aa 03 59 be f5 ac 69 bd
       -0.0037027448 -0.1397637 -0.21192804 -0.05704971
000390 45 d1 15 3e f0 19 17 3e eb 09 fb bd f8 f0 eb bd
       0.14630611 0.14755988 -0.12257751 -0.115205705
0003a0 5c 78 bf bd 62 ce 85 3c 41 12 87 be 34 f5 a7 be
       -0.093491286 0.016333763 -0.26381114 -0.32804263
0003b0 7e a8 df 3b cb 1e 54 3e c9 74 87 3e 50 ff a4 3d
       0.0068255058 0.20714872 0.26456288 0.080565095
0003c0 ec ae 91 bd 0b f1 07 3d a9 6f 27 bd 51 46 e8 bd
       -0.07113442 0.03318886 -0.04087797 -0.11341537
0003d0 0b ad c2 bc f7 93 78 3e b1 59 3f 3d 45 e2 c1 bd
       -0.023764154 0.24275194 0.046716396 -0.094669856
0003e0 f9 be 26 3d df 6e 96 3d a7 86 43 3e 22 e6 66 3e
       0.04070947 0.07345366 0.19094335 0.22548726
0003f0 f1 3f 49 3e 3b dc ce 3d 48 ce 1d 3d 71 c9 be bd
       0.19653298 0.101005994 0.038526803 -0.09315766

bias f4 [10]
000000 bf ad 5b bd 0e 78 97 3d dc ef 69 bd 10 ec 6e 3c
       -0.053632494 0.073959455 -0.057113513 0.014582649
000010 bc 15 1c be 8c d4 24 bd 87 71 aa bd 4a 04 04 be
       -0.15242666 -0.040241763 -0.08322435 -0.12892261
000020 39 2c 9e 3e db 76 a1 3c
       0.30893114 0.019709995
