plots/2_active_learning/saves/A_inv_acq.pth (torch, 4469 bytes, 2 tensors)

weight f4 [10, 64]
000000 26 aa ef 3d 3b bb 8c bd cd 48 8d bd 52 67 df 3d
       0.11702375 -0.06871649 -0.06898651 0.10908379
000010 b4 4f b9 ba bd 47 30 be 0c f4 53 be bb 0f 1c 3d
       -0.0014138133 -0.17214866 -0.20698565 0.03810094
000020 29 2e 5f bd 24 aa 56 bc 07 14 86 bd f4 a4 c9 3d
       -0.05448738 -0.013102088 -0.06546789 0.098459154
000030 d2 ff 32 bc f3 00 e6 3d 8f 06 d2 bd 41 ea 6a 3c
       -0.01092525 0.1123065 -0.10255157 0.014338077
000040 ca 32 f2 bc 38 53 79 3d a3 37 1e 3e 76 4a 88 bb
       -0.029565234 0.06087038 0.15450911 -0.004159267
000050 03 ed c2 bd 82 df 14 3e 1f e9 25 3e 98 cd 8c bd
       -0.09517863 0.14538386 0.1620221 -0.068751514
000060 ad 26 8c bc ed 2d 30 3e ff 9c 3f 3e 5a d5 83 be
       -0.017108286 0.1720502 0.18712233 -0.25748712
000070 d3 74 f7 be 9e f1 b5 bc 86 b7 4f 3e 04 7a 3c 3c
       -0.48331317 -0.022209939 0.20284852 0.0115037
000080 98 76 d4 bc 27 3b 47 3e 1e 7d 13 3e 77 bf 96 be
       -0.025935456 0.19456159 0.14403197 -0.2944295
000090 71 c4 e9 be 21 be ba 3d 81 b3 8c 3e 40 7c f9 3c
       -0.45657685 0.091182955 0.274807 0.030454755
0000a0 e5 d4 8b bd 28 6f 9d 3d 72 87 ad 3e 8c 51 0b be
       -0.06827716 0.07687217 0.338924 -0.13605326
0000b0 41 8c 80 be f2 bb 92 3d e0 fd ed 3d 03 56 71 bc
       -0.25107005 0.07164754 0.116206884 -0.014729979
0000c0 5f 5d c8 3d 53 cd 64 3c 24 78 36 3e dd 03 b5 3d
       0.09783434 0.013964969 0.17819268 0.088386275
0000d0 ea 46 ac 3d ff da 18 3e e4 f6 f4 bd 39 95 c1 bd
       0.08411963 0.1492729 -0.11961153 -0.0945229
0000e0 ee 81 be bd 5d 23 4b bd 55 1d d0 bd 27 f5 13 3e
       -0.09302126 -0.049594272 -0.10161845 0.14448987
0000f0 ea 6a 86 bc 1a f0 d8 bd 92 e2 46 bd f1 5a bc bd
       -0.016408402 -0.10592671 -0.048555918 -0.09197033
000100 ba 42 99 bd 21 0b 67 bd 4f c0 71 bd e6 3b 77 bd
       -0.0748343 -0.056407098 -0.05902129 -0.060359858
000110 f3 74 64 be 9f 5a e3 3d 7e 45 88 3d 9b d9 24 3d
       -0.22310238 0.11101269 0.066538796 0.040246587
000120 e0 8e f7 bd e4 f4 6a be f6 9e 8d be 8f 8e 82 bd
       -0.12087798 -0.22944981 -0.2766034 -0.06374847
000130 ca ab af 3e 4d 6e 84 3d 9e 53 78 bd 89 b8 35 bd
       0.34310752 0.06466351 -0.06062662 -0.04436544
000140 ca e5 a3 3d c8 44 ec bd ca 78 f2 bd 7c 27 1b 3f
       0.08002813 -0.115365565 -0.11839445 0.60607123
000150 d9 bd 00 3f fd e0 d4 bd b6 fb 16 be 3e ca 47 3d
       0.50289685 -0.103944756 -0.14744458 0.048776858
000160 13 8d dd 3d 2a dc ba 3d 01 47 e9 3c d3 4c cf 3e
       0.108179234 0.09124024 0.02847624 0.404883
000170 46 19 25 3e 24 0c 63 bc fb ee 2f bb 15 d1 08 3d
       0.16122922 -0.013857875 -0.0026845324 0.03340252
000180 80 de 38 bd 97 40 af bd 57 6e be 3c 03 d0 8c 3d
       -0.045134068 -0.085572414 0.023245974 0.068756126
000190 59 1e 43 3e bb 17 44 be 6f d4 11 be 50 e9 37 bd
       0.19054545 -0.19149677 -0.14241193 -0.04490024
0001a0 e7 32 59 3d f6 d7 15 be b6 30 08 bd 2d a1 6e 3e
       0.05302706 -0.14633164 -0.03324958 0.23303671
0001b0 4b dd 9e 3e 4d c1 1e be 20 31 69 be 98 73 43 be
       0.31028208 -0.15503426 -0.22772646 -0.19087064
0001c0 00 73 27 3d f0 1b 39 be 1e ef f2 39 a2 74 46 3e
       0.040881157 -0.18077064 0.00046335993 0.1938043
0001d0 fb 1c 82 3e e1 54 df bb 86 50 6f be 9c 31 0b 3e
       0.25412735 -0.0068155383 -0.23370561 0.13593143
0001e0 d4 9b 15 3d cc ce e6 bd e8 e4 2e be af b2 e3 bd
       0.036525562 -0.11269912 -0.17079508 -0.111180656
0001f0 e1 5f c3 3d 46 9c 23 3d 5c 56 47 3d 76 3a 76 3e
       0.09539772 0.039943956 0.048666343 0.24045739
000200 da 59 a2 3d 7f c4 0d 3e fc 5d c0 3d e0 7e 23 3e
       0.07927294 0.13844489 0.09392926 0.15966368
000210 1a fd 78 bc 1f 76 92 bd 92 ac c5 bd 89 37 03 be
       -0.015197063 -0.07151436 -0.09652056 -0.12814154
000220 fc 71 00 bd d3 a4 e9 3d c1 8a 09 3e 9b df f4 3c
       -0.031358704 0.11408391 0.13431837 0.02989178
000230 21 33 30 3e 32 4c 2d 3d ea dd 8b 3b 50 e3 34 3c
       0.17207004 0.042308994 0.0042683976 0.011040524
000240 ff 7f 7b 3d ae e6 b5 3d 27 20 24 be 96 bb 87 be
       0.061401363 0.08881889 -0.1602789 -0.26510304
000250 23 a1 72 bc 21 bd 6a bd b1 1c 99 bd 59 52 8b 3d
       -0.014808926 -0.057309274 -0.074761756 0.06802816
000260 5f d6 b2 bc 8d bd 3a be 9e 8d db be 48 a4 f1 be
       -0.021830736 -0.1823637 -0.42881483 -0.4719565
000270 63 e2 c6 bd 81 4d b6 bd 4a 2e 39 3b 5a e7 46 bb
       -0.097111486 -0.089015014 0.002825635 -0.0030350299
000280 14 b3 35 bd c6 83 1c be b6 70 a2 be b5 4d 74 3c
       -0.044360235 -0.15284643 -0.31726617 0.014911105
000290 9c ad 29 be ae b4 88 be 09 7b 66 be 8c a5 ea 3d
       -0.16570133 -0.26700348 -0.22507872 0.11457357
0002a0 95 ef f8 ba 72 fb a9 3d 7f c7 92 3d da 21 95 3e
       -0.00189923 0.082999125 0.07166957 0.2912739
0002b0 14 ce aa bd e8 04 ca be 24 97 ef bd 53 33 a2 3d
       -0.083400875 -0.39456868 -0.1169875 0.079199456
0002c0 c0 1b 9d 3d ef 36 0d 3e cf 4d 48 3d 26 85 f3 3e
       0.076713085 0.13790487 0.04890233 0.47562522
0002d0 d2 ea 3a 3e 1d 9d 8b 3e a3 9c 68 3e b1 80 61 3e
       0.1825364 0.27268305 0.22716002 0.22021748
0002e0 2b cc e7 3d 74 a2 9f 3d 8a 48 43 3e 42 72 58 3d
       0.11318239 0.07794657 0.1907064 0.05284334
0002f0 99 bd 41 3e d1 de 79 3e 47 c0 8a 3e 5e 10 8d 3e
       0.18919982 0.24401404 0.2709982 0.2755155
000300 40 03 1c bb af 91 8a 3d d8 29 b4 3d 08 4a fe 3d
       -0.0023805648 0.06766068 0.087970436 0.12416464
000310 bc f7 7d 3e 1e 36 6e 3d 55 0b 43 bc 5d 56 c7 bd
       0.24801534 0.05815708 -0.011904557 -0.09733269
000320 08 93 c2 3d ac f9 d3 3d 83 b6 08 3d 81 a8 ba bd
       0.095007 0.103503555 0.03337718 -0.09114171
000330 52 18 68 3d 77 0a 51 3e cc 95 93 3d f6 ae 9a 3d
       0.05666382 0.20414148 0.07206306 0.075529024
000340 57 a9 a5 3d c9 31 d2 3c e7 69 04 bf 55 68 84 be
       0.0808894 0.025658505 -0.51724094 -0.2586085
000350 63 7e 03 3e 85 57 fb bc df 64 f9 bd fa cf cc bd
       0.12841181 -0.030681381 -0.12177443 -0.10000606
000360 a7 56 17 bd fe 1d 7f be bc 4f c1 be 51 cc 55 bd
       -0.036947872 -0.24913785 -0.37756145 -0.052196804
000370 55 e5 79 3e 62 f6 b5 be c9 5a 97 be d3 4e 88 bd
       0.2440389 -0.35539538 -0.2956145 -0.066556595
000380 60 1f 0c bc 52 ec c4 bd b1 17 8b be a0 cb 82 be
       -0.008552402 -0.09615387 -0.27166513 -0.2554598
000390 f6 72 26 3e 59 5f 1c 3e 6c ec ca bd 18 42 0b bd
       0.16254792 0.15270747 -0.09908375 -0.03399858
0003a0 fb 98 a2 bc 84 6d 0b be 07 b5 82 be 26 c1 b6 be
       -0.019848337 -0.13615996 -0.25528738 -0.35694236
0003b0 18 6d 9a bd 0b 1c 9e 3e 5a 45 a7 3e 01 ef e9 bb
       -0.07540339 0.3088077 0.326701 -0.007139087
0003c0 44 32 82 bd eb 89 dc 3c a3 d2 d6 3c f0 97 56 be
       -0.06357244 0.026921233 0.026223486 -0.20956397
0003d0 43 ee fd bc c4 d0 e1 3d f3 a0 0a 3e 99 38 23 bd
       -0.030997401 0.11026147 0.1353796 -0.039848898
0003e0 49 d4 38 bd 48 11 38 3e 9f 65 15 3e 1e 00 03 3e
       -0.045124326 0.17975342 0.14589547 0.12793013
0003f0 1d 36 7e 3e 05 d0 2d 3c ab 8d 5b 3d e5 0a e4 bd
       0.2482533 0.010608678 0.053601902 -0.111348905

bias f4 [10]
000000 ac f1 31 be f2 a3 07 be 56 a7 08 bd 1b aa cf 3b
       -0.17377347 -0.13246134 -0.03336271 0.006337417
000010 33 04 37 be 5c 39 d2 3d 19 f5 ca bd cc f3 ef bd
       -0.17872696 0.10264847 -0.0991003 -0.117164224
000020 13 77 b4 3e c8 30 e4 3d
       0.35247096 0.11142117
