plots/2_active_learning/saves/D_acq.pth (torch, 4373 bytes, 2 tensors)

weight f4 [10, 64]
-0.008313075 -0.10031254 -0.022992598 0.13794112 0.009801115 -0.10663601 -0.12732221 -0.062497366
0.014992541 -0.06853975 -0.0021007198 0.17579994 0.07379736 0.12642673 -0.17424978 -0.0013126398
0.026582092 0.041114904 0.026329976 -0.034802124 -0.22058697 0.21416044 0.10376192 -0.028278464
0.003896972 0.24266371 0.16482225 -0.20958838 -0.5204115 -0.0061026393 0.27988395 0.052055545
-0.098003626 0.31039163 0.16920307 -0.42086586 -0.44596258 0.0070711747 0.17194265 -0.011800855
-0.009674079 0.115819186 0.25740415 -0.05953807 -0.09390062 0.062402096 0.12614785 -0.06139527
-0.01988945 0.00015664757 0.14438833 -0.018713841 0.002703626 0.074143186 -0.05876677 -0.13548209
0.04221675 -0.08803446 -0.05812704 0.0784803 0.1239534 -0.009358275 -0.14811732 0.06850016
-0.0126757175 -0.04115208 -0.15087326 0.030595759 -0.33361578 0.18535171 0.10046298 -0.039058544
0.03080375 -0.1764135 -0.39288116 -0.043121736 0.2943765 0.022996519 -0.2061854 0.029031562
0.0564347 -0.017511731 -0.14966455 0.59221435 0.5294336 -0.09721855 -0.13753852 -0.123166114
0.08522316 0.08334969 0.19116896 0.26107287 0.1810117 -0.029706538 -0.19190817 0.024232637
-0.013747081 0.0009023401 -0.012833108 -0.014968251 0.1341757 -0.047626678 -0.11034186 0.099201426
-0.0019649817 -0.042081684 -0.1178887 0.25590757 0.28550452 -0.28241777 -0.3247427 0.06640195
-0.04519249 -0.22575551 -0.009571779 0.13394207 0.28687394 -0.07307482 -0.084445536 0.15484907
-0.10060614 -0.012632153 -0.011596353 -0.19307207 0.14010988 0.10893759 0.11976542 0.30632654
0.06435864 0.04834905 0.2152487 0.068369 0.06739707 -0.026347976 -0.16872568 -0.08598143
0.034800235 0.10422836 0.082370445 0.07607315 0.24567622 -0.0308012 -0.05188574 -0.1046613
0.026304983 0.088574074 -0.1447219 -0.31105924 0.081434526 -0.054933824 -0.017302744 0.05829393
-0.102916315 -0.16987815 -0.38522986 -0.5150734 0.035658676 -0.11450291 -0.121913135 -0.008393712
-0.07690096 -0.09724634 -0.26004004 -0.14792944 -0.10533904 -0.32126263 -0.22764096 0.10822381
0.092730984 -0.06832403 0.105797574 0.40731427 -0.20325904 -0.35228133 -0.13967493 0.005233131
0.107683964 0.14300328 0.13623463 0.39413813 0.33268127 0.2601705 0.23012842 0.09456862
0.04247343 0.11578986 0.048699114 0.13773894 0.054258883 0.20556669 0.46302024 0.14290975
-0.114409655 0.14500874 0.070664346 0.12836613 0.32726127 0.17625634 0.00080692815 -0.028304948
0.060705755 0.044594925 -0.0031963848 -0.057266694 0.042914264 0.16483496 0.101544134 -0.10543813
-0.05970655 0.016270857 -0.4509307 -0.29740143 0.11354675 -0.059302393 -0.102242716 -0.095158376
0.03805116 -0.18000074 -0.37981433 -0.15723811 0.20046005 -0.26812896 -0.31459895 0.09851534
0.022633806 -0.14511059 -0.26852375 -0.13568233 0.26896557 0.22071266 -0.107143156 -0.030576184
0.022409704 -0.01630305 -0.3190363 -0.31172276 -0.08515444 0.27034083 0.27473426 -0.080256976
-0.071969576 -0.048073843 0.010875007 -0.22066578 0.019666592 0.2620942 0.0929157 -0.026722293
-0.05840368 0.013752827 0.11928475 0.14554633 0.14656031 0.16357532 0.048954982 -0.05696482
00000000: 9033 08bc a970 cdbd f95a bcbc 7040 0d3e
00000010: db94 203c fb63 dabd c160 02be 3dfd 7fbd
00000020: 46a3 753c 925e 8cbd 3bac 09bb e604 343e
00000030: 1223 973d 0276 013e 896e 32be e20c acba
00000040: b0c2 d93c 1a68 283d f6b1 d73c ac8c 0ebd
00000050: 8de1 61be e04c 5b3e 2181 d43d 3da8 e7bc
00000060: 5764 7f3b d67c 783e 2ac7 283e 569e 56be
00000070: b039 05bf a6f8 c7bb f34c 8f3e 3238 553d
00000080: 20b6 c8bd a7eb 9e3e 9243 2d3e bb7b d7be
00000090: 3555 e4be 50b5 e73b bc11 303e 6058 41bc
000000a0: 0780 1ebc 9c32 ed3d 7aca 833e 31de 73bd
000000b0: f84e c0bd 5799 7f3d e72c 013e 9b79 7bbd
000000c0: 33ef a2bc c341 2439 89da 133e c54d 99bc
000000d0: 512f 313b 62d8 973d 6db5 70bd d1bb 0abe
000000e0: 79eb 2c3d 694b b4bd 9e16 6ebd 48ba a03d
000000f0: 48db fd3d 7353 19bc 11ac 17be d049 8c3d
00000100: d0ad 4fbc 158f 28bd 857e 1abe f5a3 fa3c
00000110: b0cf aabe d7cc 3d3e 89bf cd3d dafb 1fbd
00000120: 2558 fc3c bea5 34be b827 c9be 6ba0 30bd
00000130: 84b8 963e 3263 bc3c 4422 53be 99d3 ed3c
00000140: 1228 673d c374 8fbc aa41 19be 5c9b 173f
00000150: f688 073f 851a c7bd e6d6 0cbe 843e fcbd
00000160: 7b89 ae3d 3eb3 aa3d ccc1 433e 58ab 853e
00000170: 225b 393e 205b f3bc 9383 44be 8683 c63c
00000180: 703b 61bc 058b 6c3a f541 52bc 653d 75bc
00000190: 5b65 093e 3114 43bd eafa e1bd 1e2a cb3d
000001a0: ecc6 00bb d85d 2cbd a16f f1bd 5106 833e
000001b0: a62d 923e 1099 90be ad44 a6be bffd 873d
000001c0: c31b 39bd 742c 67be f3d2 1cbc 1c28 093e
000001d0: 24e1 923e 40a8 95bd c8f1 acbd c190 1e3e
000001e0: 980a cebd 17f7 4ebc a1fe 3dbc afb4 45be
000001f0: f778 0f3e ac1a df3d 9347 f53d d5d6 9c3e
00000200: 76ce 833d a709 463d 286a 5c3e 0c05 8c3d
00000210: 7a07 8a3d b6d7 d7bc 6dc6 2cbe 0817 b0bd
00000220: b18a 0e3d ae75 d53d d6b1 a83d 3dcc 9b3d
00000230: 8c92 7b3e cc52 fcbc 2486 54bd aa58 d6bd
00000240: 8c7d d73c 5366 b53d fa31 14be 2843 9fbe
00000250: 25c7 a63d 4a02 61bd 7cbe 8dbc 9ec5 6e3d
00000260: cac5 d2bd 8af4 2dbe d93c c5be dadb 03bf
00000270: d50e 123d 8080 eabd 98ad f9bd c885 09bc
00000280: 407e 9dbd 1729 c7bd f823 85be d17a 17be
00000290: ffbb d7bd 897c a4be b61a 69be 72a4 dd3d
000002a0: bee9 bd3d 78ed 8bbd 66ac d83d 7f8b d03e
000002b0: 2323 50be 385e b4be f206 0fbe af7a ab3b
000002c0: 6989 dc3d 746f 123e 1781 0b3e 79cc c93e
000002d0: 3355 aa3e 1135 853e c9a6 6b3e 31ad c13d
000002e0: 9ff8 2d3d 3c23 ed3d b978 473d 700b 0d3e
000002f0: 903e 5e3d 1380 523e fd10 ed3e ef56 123e
00000300: 9c4f eabd 2c7d 143e 78b8 903d 6972 033e
00000310: ca8e a73e 8b7c 343e 0888 533a c7df e7bc
00000320: 99a6 783d 2ba9 363d 707a 51bb 7b90 6abd
00000330: dec6 2f3d 7fca 283e 5ff6 cf3d f2ef d7bd
00000340: db8e 74bd 764a 853c 64e0 e6be 0045 98be
00000350: 338b e83d 11e7 72bd a164 d1bd 65e2 c2bd
00000360: 88db 1b3d 1d52 38be 0677 c2be 0703 21be
00000370: 6645 4d3e 3348 89be 1d13 a1be 69c2 c93d
00000380: 886a b93c df97 14be f27b 89be 4ff0 0abe
00000390: dbb5 893e 8002 623e df6d dbbd e87a fabc
000003a0: 8e94 b73c f98d 85bc ba58 a3be 209a 9fbe
000003b0: 7365 aebd 1d6a 8a3e f8a9 8c3e c55d a4bd
000003c0: c964 93bd 14e9 44bd 162d 323c 36f6 61be
000003d0: d51b a13c 3631 863e 964a be3d b6e8 dabc
000003e0: b238 6fbd 8a53 613c 904b f43d 190a 153e
000003f0: e813 163e 4a80 273e 0585 483d f153 69bd

bias f4 [10]
-0.17267203 -0.026556712 -0.023527725 -0.023231551 -0.018594448 0.029879691 -0.1590142 -0.08766245
0.2953906 0.035059866
00000000: f0d0 30be 768d d9bc 37bd c0bc 1850 bebc
00000010: 6253 98bc 41c6 f43c 9ed4 22be 5f88 b3bd
00000020: 703d 973e ef9a 0f3d
