plots/2_active_learning/saves/random.pth (torch, 4381 bytes, 2 tensors)

weight f4 [10, 64]
000000 8c 44 e7 bd d6 fa 94 bd fa 7c 8e bc 3a 68 0a 3e
       -0.11292371 -0.07274406 -0.017393578 0.13516322
000010 1a 0e 46 3d e5 da fe bd a8 6d c5 bd bf 82 9d 3d
       0.048353292 -0.124440946 -0.09640056 0.076909535
000020 9b c4 9f 3d 91 d5 09 be 57 8a 4a 3d f5 57 a8 3d
       0.078011714 -0.13460375 0.049448337 0.082199015
000030 c3 42 37 3e 6e 0b 8a 3d cf c9 08 be 36 1c 2a bd
       0.17896561 0.06740461 -0.13358234 -0.04153081
000040 48 52 19 3d b8 c8 dd 3c 53 92 33 3e c9 f4 8b 3c
       0.037431985 0.02707325 0.17536287 0.017084496
000050 ac 1e 3d bd fe 47 fb 3d 59 72 83 3d 41 6d 0f 3d
       -0.04617183 0.12269591 0.064182945 0.035016302
000060 3e 2d 61 bd 91 c3 81 3e 43 e4 bf 3c ed 3b 88 be
       -0.054974787 0.25344518 0.023424273 -0.2660822
000070 31 c4 f7 be 1d 10 86 3d e1 4d 95 3e 61 0b 92 bd
       -0.4839187 0.06546042 0.2916098 -0.071310766
000080 86 19 df 3d e5 72 68 3e c8 87 64 3d 8e 83 c6 be
       0.1089354 0.22700079 0.055793554 -0.38772243
000090 e4 24 bd be 77 2d 8a bb 6a 59 19 3e b0 15 37 3d
       -0.36942208 -0.0042168456 0.14975515 0.044698417
0000a0 d4 64 54 3d 81 d3 17 3e bd 6a 67 3e d3 eb 41 be
       0.05185397 0.14826776 0.22599311 -0.18937616
0000b0 c3 66 2f be a8 90 01 3d 19 09 0b bd b7 03 17 bd
       -0.17129044 0.031632096 -0.033944223 -0.036868777
0000c0 28 3a a9 3b 8c 6b f8 bc 78 a1 8f 3e 12 41 01 3c
       0.0051644035 -0.03032472 0.28052878 0.007889049
0000d0 d8 5c 11 3c ef d6 23 3e 01 12 89 bd 6b 20 84 3d
       0.008872233 0.1599996 -0.06692887 0.06451496
0000e0 62 56 81 3d a0 f0 19 be 5f 8e 17 bd 91 90 09 3e
       0.06315304 -0.15033197 -0.03700101 0.13434054
0000f0 b1 02 31 bc b0 96 f0 bc 57 54 e5 bd 57 5c b9 bd
       -0.010803864 -0.029368728 -0.11197727 -0.090508156
000100 14 01 5c bd a1 7b 0e bd aa 01 91 bc cb 2c 01 be
       -0.053711966 -0.03478587 -0.017700989 -0.12614743
000110 63 4e 47 be bd ff 6a 3d a3 7a 1e 3d 9c dc 34 3d
       -0.19463496 0.057372797 0.038691174 0.044155702
000120 6f df 4b bc 9b 9f 52 be 81 69 de be a7 b7 d4 bc
       -0.012443407 -0.20568697 -0.43439868 -0.025966479
000130 ae 9e 28 3e da d9 ae 3d b8 09 6b be 13 ca 92 3d
       0.16466781 0.08537646 -0.22952926 0.07167449
000140 55 96 90 3d b4 26 ba bd 56 1a 19 be 92 17 d2 3e
       0.070599236 -0.09089413 -0.14951453 0.41033608
000150 af f1 c7 3e 91 85 e7 bd 5f 02 fe bd b1 fd d1 bd
       0.39051577 -0.11304773 -0.12402796 -0.10253466
000160 5d e3 5e 3d ef 82 58 bd b6 ee 2e 3e 05 13 aa 3e
       0.05441605 -0.052859243 0.17083248 0.33217636
000170 8f 33 71 3e 89 9c f4 bc 2c e0 11 be 51 a6 cc bc
       0.23554824 -0.029859798 -0.14245671 -0.02498165
000180 92 b7 f2 bd c6 c1 4a 3c ee 9a 44 3d cc 8b 55 bc
       -0.118514195 0.012375301 0.047999315 -0.013033818
000190 68 aa cd 3d d8 76 f1 bc d4 dc 6b be 04 45 9b bd
       0.10042268 -0.029475614 -0.23033458 -0.07581523
0001a0 30 8c aa bd d9 69 7f be 86 e7 a7 bb 51 27 bb 3d
       -0.0832752 -0.24942721 -0.0051240353 0.091383584
0001b0 9d a5 56 3e 62 f0 b5 bd 82 c3 91 be 10 f7 2c 3d
       0.20961614 -0.0888374 -0.28469473 0.042227805
0001c0 fd 37 fb bd 7a 43 c5 bc e5 1a 87 be 65 f2 b3 3d
       -0.12266538 -0.024080027 -0.26387706 0.087864675
0001d0 7f 05 4e 3e 78 48 01 be ab ee 83 bc 87 93 2e 3e
       0.20119284 -0.12625301 -0.016105017 0.17048465
0001e0 65 4c ed 3c 89 3d f6 bc 37 1c 93 be 71 33 36 be
       0.028967092 -0.03005864 -0.28732464 -0.17793061
0001f0 19 45 f9 3d 23 9b 70 3e 30 3d 34 3c b3 6b 98 3e
       0.121713825 0.2349668 0.011000916 0.29769668
000200 7c 85 c5 3d 69 29 b1 bc 97 b8 d1 3c 4f 74 2a 3e
       0.09644601 -0.021626191 0.025600715 0.1664593
000210 96 34 2d bc 65 ef d8 bd 42 49 16 be 4c 13 bf 3b
       -0.0105716195 -0.10592536 -0.14676383 0.005831158
000220 7b fd a4 3b fa a2 95 3e ab 6e 3b 3d 4b 2e ce 3d
       0.0050351 0.29225904 0.045759838 0.100674234
000230 10 df 5d 3e 99 2c 3c bb dc 15 fc bd cf cb d9 3c
       0.21667123 -0.0028713106 -0.12308857 0.026586441
000240 6b 4d e8 bc fe a1 e1 bd 68 c2 55 be b5 20 2a be
       -0.028357228 -0.11017226 -0.20874941 -0.16614039
000250 b9 8e 5b 3d f2 73 73 bc 67 1b d8 3d c7 ee 43 3d
       0.053602908 -0.0148591865 0.105521016 0.047835138
000260 ce bc f6 3c 97 51 04 be e9 30 a8 be 7e a0 ee be
       0.030119326 -0.12921749 -0.32849815 -0.4660682
000270 b3 d2 44 bd 9b 73 e3 bd 56 be ed bd b2 ad 37 3d
       -0.0480525 -0.11106034 -0.11608569 0.044843383
000280 66 85 d3 3d 14 e0 b0 bd f7 e6 97 be e9 ef f8 bd
       0.10328178 -0.086364895 -0.296684 -0.12155134
000290 a7 a2 bc bd 2b 69 71 be ff ae a3 be 84 2c cd 3d
       -0.09210711 -0.23575275 -0.3196945 0.10018256
0002a0 c2 8b 20 bc 26 3f a3 3b ec cd e0 bc bb b0 9b 3e
       -0.009798946 0.004981893 -0.027441941 0.30408272
0002b0 aa a2 7d bc f5 f5 ab be 16 9a ce bd d9 ef d4 3d
       -0.015480677 -0.33586088 -0.10087983 0.1039731
0002c0 9a e9 07 bd 74 b9 69 3e 3b 5b 39 3e 16 d9 9a 3e
       -0.033181764 0.22824651 0.18101208 0.30243748
0002d0 7f d1 94 3e 92 e0 bd 3d bc 26 a0 3e 07 1c 8e 3d
       0.29066083 0.09271349 0.31279552 0.069389395
0002e0 48 aa d1 3d 2e 12 35 3e 21 10 6a 3e e9 55 27 bd
       0.10237557 0.17682716 0.22857715 -0.040853415
0002f0 f9 4a a9 3d d5 e4 04 3e 03 ba db 3e 9c 3f 26 3e
       0.08266253 0.12977917 0.42915353 0.16235203
000300 6c bd 90 3d 3f e4 05 3b cd cc 96 3d c6 bc 1b 3e
       0.07067379 0.0020430235 0.073632814 0.1520873
000310 bd 83 8f 3e 4d 93 30 3e ed 5e 1a 3d 27 4c e0 bc
       0.28030196 0.17243691 0.037688185 -0.027380062
000320 3b 9b b6 bd e9 85 f1 3d 24 53 96 bd 16 0d 41 be
       -0.089163266 0.117931195 -0.073400766 -0.18852648
000330 8b 1b d4 3d ba 75 6c 3e 45 03 df 3d 5b 0a cd bd
       0.10356816 0.23091784 0.108892955 -0.10011741
000340 65 20 27 3c 66 4b db 3b f9 26 c9 be 39 ed 7f be
       0.010200595 0.006692338 -0.39287546 -0.24992837
000350 37 27 51 3e 7d 42 dd bd c7 1a f9 bc 33 4f 72 bd
       0.20425116 -0.10803697 -0.030408276 -0.05915756
000360 bd 40 f2 bd 9f c4 0c be 1b 5b da be c2 96 19 be
       -0.11828754 -0.1374688 -0.42647633 -0.14998916
000370 35 f5 83 3e 24 cf 95 be ff 1c 90 be a1 4d 35 3d
       0.25773016 -0.29259598 -0.28147122 0.044263486
000380 00 f1 d3 3d 95 92 10 be 91 c7 9c be 53 c2 17 be
       0.103487015 -0.14118417 -0.30621007 -0.14820223
000390 61 2b 92 3e ef 54 55 3e a0 f1 ff bc 18 d9 ee bc
       0.2854872 0.20833181 -0.031243145 -0.029156253
0003a0 12 50 9c 3d 59 e4 56 3b 07 4e 69 be 10 ff 9d be
       0.0763246 0.0032789914 -0.22783671 -0.3085866
0003b0 bf de b0 bd 77 c7 8f 3e 3d d1 b3 3d cb c1 4b bd
       -0.086362354 0.28081867 0.087801434 -0.049745362
0003c0 d7 8d 44 3c e9 2c d9 3c 8b 2a 83 bd f7 bd 9d bd
       0.011996708 0.026510673 -0.06404599 -0.077022485
0003d0 16 ca 5b bb 9c 9d 80 3e 65 61 f0 3d c5 67 b7 bd
       -0.00335372 0.25120246 0.117373265 -0.08955339
0003e0 01 91 f5 3c 9c 85 ea 3d 97 62 24 3e 16 40 f1 3d
       0.02997637 0.11451265 0.16053234 0.117798015
0003f0 5e c8 20 3e 62 00 03 bc 44 07 9e 3d 86 67 5a bb
       0.15701434 -0.007995697 0.077162296 -0.0033325865

bias f4 [10]
000000 ab 2b 03 be 02 f3 53 3d 03 e8 26 bd c2 bb 97 3d
       -0.12809627 0.051745422 -0.040748607 0.07408859
000010 d9 3a 38 bd 5c 81 a3 bd c2 b7 58 3c d9 ad 85 bb
       -0.044977996 -0.07983658 0.013227405 -0.004079562
000020 90 a5 74 3e e7 8c ec 3d
       0.23891282 0.115503125
