plots/1_overparam/saves/model_final.pth (torch, 4485 bytes, 2 tensors)

weight f4 [10, 64]
00000000: 0054 75ba 81f5 363d 1ef6 a5bd 41bd 9e3d
00000010: 64d8 8fbd ea7a f1bd dd51 c7bd 8d72 983d
00000020: 9d73 62bc 78cf 10bd 8cda 213d a92e de3d
00000030: 5bf1 5a3d d44a d43d 832c e9bd 0e72 15bd
00000040: 61f7 a03c f2c3 dd3d 01fb 8a3d 23a0 88bd
00000050: 28de 2ebe ac44 983e 6e9a dc3d 2910 863d
00000060: ed59 2cbd 7ddf 4c3e e137 653e 5fd5 ccbe
00000070: 1a8e 15bf d71b 2cbd ea21 6c3e 65d3 c43d
00000080: 1aef a5bd bf27 523e eca4 c73d 0531 d4be
00000090: 5c51 06bf 617f 813c c670 853e 0027 783d
000000a0: 7167 963b 0f8c 043d 067a a53e e010 8fbe
000000b0: 6ca0 8cbe 5f1f ac3c 6c7c b03d 4c09 7e3d
000000c0: 8c7a 62bd d536 9dbd b51b 933e c677 263e
000000d0: 643a 343e 208d f53d 2e77 acbd c452 cebd
000000e0: 65a3 cc3c b8d9 e1bd d98b a5bd f080 c43d
000000f0: 1a71 983c 49a8 d1bd 8b0f 3bbe c673 943c
00000100: 6e89 8c3d a0e3 cdbd 2515 d5bd 0b4c b6bd
00000110: 8fd7 8fbe 30d5 7b3e 2c66 7abd f7d3 84bd
00000120: 66fd 743c 35d5 2abe a746 c9be 5133 323d
00000130: 97df a93e 82e3 f7bc fdde 9bbd ea00 c0bd
00000140: 6610 c73c bf1a e73c 9354 63bd 8a21 103f
00000150: b1f3 143f 06f1 89bd 8b72 52bd 9ac1 81bd
00000160: f3b0 a33d d64b 9fbb c878 1d3e e20e d13e
00000170: fe61 3e3e e411 503d c309 30be dbbe 9fbd
00000180: 38a6 7f3d 4290 9cbc 6b0a 87bd 6372 a3bc
00000190: 4148 2e3e 9646 abbc 2d3b 52be d4dc 00bd
000001a0: 4c75 efbd fd72 42be 6bd8 25be a608 fd3d
000001b0: 782d 883e f03f 5ebe 9969 9bbe ea7a 073d
000001c0: 6042 a0bd dc2c 8dbd b812 76bd 98c6 7f3d
000001d0: 8ce6 833e baed 02bd 26f9 f8bd ba10 403e
000001e0: ccb0 293d 1791 84bd 7d52 62be b0c3 00be
000001f0: 2c62 a9bc 1a67 483e 6a02 073e 5885 9f3e
00000200: 5c1d 33bd defe 903c 7adf df3d 8603 0c3e
00000210: f2ac 7bbc c487 a6bd 2a8c 45bc cb7d ebbc
00000220: 1c1b b53c 54b1 893e b6d1 003e 2ed7 563d
00000230: b599 9c3e 66d4 e23c 2e6b 4a3d 922d 03bd
00000240: 0ad5 59bd f1f1 cd3c 9ea2 17be ea21 8abe
00000250: fec2 123d 8d6c 6bbd c08a 37bd a73e d1bd
00000260: 70bf ccbc 38b8 d0bd 22a7 e6be 253a 21bf
00000270: aa07 113d df75 97bd 2532 45bd bb7e 46bd
00000280: f03c c5bc fc8e 0abe 8348 dfbe e031 49be
00000290: 894c c3bd 386e 94be b4e2 73be b8de 403d
000002a0: 82c3 e1bd 97f5 ce3c ce0f 153e ddfb b63e
000002b0: 5d1a 89bd 539b c8be abee 90be 4f49 cb3d
000002c0: 1728 053b 8abb b23d 7085 733e f26b b53e
000002d0: 780b 8e3e fcd6 483e 2b7e 8d3e 05f2 b63d
000002e0: 4380 dd3d d9b1 313e 17d6 073e 9883 773d
000002f0: 75ac e1bb ae96 a93e 39d1 d63e cd9a 293e
00000300: ac93 b4bd 7a13 c93d eb0d c13b 3935 053e
00000310: 36f9 8b3e da55 6e3e 9b50 22bd dca2 89bc
00000320: d5ea b2bc f7c0 6e3e 39b5 1c3d 2a00 1bbe
00000330: 1b80 0d3c 95cc 823e abf6 003e 63e5 b03d
00000340: 0bce ec3c c019 19bd 6a85 04bf cbb8 a7be
00000350: 1c37 943e 5ab6 06be 3141 d3bd 4c6d 4abb
00000360: 3704 ccbd 0d6a 94be ecaf edbe 6654 2abe
00000370: 3275 5b3e 94c1 98be 2bdd 90be 0483 3fba
00000380: 26da ddbd 82db f9bd 268e cfbe 0983 35be
00000390: 3b77 863e 66c3 1a3e a076 e5bd 9626 d33d
000003a0: 85d2 a63b b7e7 8bbc be05 8fbe 57f8 03bf
000003b0: e14d 70bc edd5 993e 60be 803e 1414 a63c
000003c0: 11c3 0c3d 3e61 0a3c 6c84 f1bd a87d 41be
000003d0: 41d7 8b3d 2f99 f13d 9120 9b3e 2b33 03be
000003e0: 5cd8 3bbb a850 763d a5e1 0b3e 4f0f 533e
000003f0: 88fd 6c3e ef7c 4f3d ffe5 e9bd c20e e9bd
-0.0009358525 0.044667725 -0.08103584 0.07750941 -0.07023695 -0.11791022 -0.09732411 0.07443724
-0.01382151 -0.035354108 0.039515063 0.108487435 0.05345283 0.10365835 -0.11385443 -0.036485724
0.01964921 0.10828389 0.067861564 -0.06671169 -0.17076933 0.29739892 0.107716426 0.06546051
-0.042077947 0.20007129 0.22384597 -0.4000654 -0.58419955 -0.042018738 0.23059812 0.09610633
-0.08102246 0.20522974 0.09748253 -0.4144365 -0.52467895 0.01580781 0.26062602 0.06058407
0.004589968 0.032360133 0.3231966 -0.27942562 -0.27466142 0.021011053 0.086174816 0.062020585
-0.05529265 -0.07676474 0.28732076 0.16256627 0.176004 0.11989808 -0.08421169 -0.1007438
0.024980256 -0.11027855 -0.080833144 0.095949054 0.018608619 -0.10237176 -0.18267648 0.018121611
0.0686215 -0.10053182 -0.104044236 -0.08901223 -0.28094146 0.24593043 -0.061132595 -0.064857416
0.014952993 -0.16682895 -0.39311716 0.04350597 0.33178398 -0.030259851 -0.07610891 -0.09375174
0.024299812 0.028210996 -0.055500578 0.56301177 0.58184344 -0.06735425 -0.051378768 -0.06335755
0.07992735 -0.0048613353 0.15378106 0.40831667 0.18592069 0.05079831 -0.17191224 -0.07800075
0.062414378 -0.019111756 -0.06593784 -0.019952005 0.1701975 -0.020907681 -0.20530386 -0.031460598
-0.116922945 -0.18989177 -0.16195838 0.12355165 0.2659719 -0.21704078 -0.30354002 0.033076204
-0.0782516 -0.06893322 -0.060076445 0.062445253 0.2576183 -0.031964995 -0.12156896 0.1875638
0.041428372 -0.06472986 -0.2210178 -0.12574649 -0.020676695 0.1957058 0.13184515 0.3115642
-0.04372917 0.017699655 0.10931297 0.13673219 -0.015361058 -0.08131364 -0.0120573435 -0.028746506
0.022107653 0.26893103 0.12579998 0.052451305 0.3058602 0.02768917 0.04941862 -0.03202588
-0.053181686 0.02513978 -0.14808127 -0.26979 0.03583049 -0.05747657 -0.044810057 -0.10217028
-0.024993628 -0.10191387 -0.45049387 -0.62979347 0.0354077 -0.07395529 -0.048143525 -0.048460703
-0.024076909 -0.13531107 -0.4361001 -0.19647932 -0.09536082 -0.2899034 -0.23816949 0.0470874
-0.11023618 0.02526359 0.1455681 0.3573903 -0.066944815 -0.39181003 -0.2830709 0.09926092
0.0020318085 0.087271765 0.23781371 0.35433918 0.27743125 0.1961326 0.2763532 0.0893288
0.108154796 0.17353 0.13265263 0.060428232 -0.0068870136 0.33122772 0.419565 0.16562958
-0.08817229 0.09818168 0.0058915517 0.13008584 0.2733857 0.23274937 -0.039627653 -0.01680129
-0.021840492 0.23315798 0.038258765 -0.15136781 0.0086365 0.2554671 0.12594096 0.08637502
0.028906843 -0.037378073 -0.51766074 -0.32758173 0.28948295 -0.13155499 -0.10315169 -0.00308879
-0.099617414 -0.2898716 -0.4642328 -0.16633758 0.21431425 -0.29835188 -0.28293738 -0.00073055946
-0.10832624 -0.12200071 -0.40538138 -0.17725767 0.2626284 0.15113601 -0.112042665 0.10310094
0.005091014 -0.017078264 -0.27934068 -0.5155081 -0.014667005 0.30046025 0.25145245 0.020273246
0.034365717 0.008446036 -0.117928356 -0.1889559 0.06828166 0.117967956 0.30298284 -0.12812488
-0.0028662896 0.060135514 0.13660295 0.20611309 0.2314359 0.050656255 -0.114208214 -0.11379768

bias f4 [10]
00000000: cd0b 33be 77d7 37bd 1f0f a8bb 9705 623d
00000010: 29f3 0dbe e60d da3d fbff 22be 1aeb 0dbb
00000020: 7758 833e 2264 1d3d
-0.1748497 -0.044883218 -0.0051287557 0.055181112 -0.1386229 0.10647182 -0.15917961 -0.0021655024
0.2565343 0.038425572
