experiments/checkpoints/initial_model.pth (torch, 4501 bytes, 2 tensors)

weight f4 [10, 64]
00000000: 8fd0 6f3b 8dd1 26bb 3fa6 2e3d c67b 1a3e
00000010: 8501 1e3d 2b2f 3ebe 86b1 47bd a9c4 68ba
00000020: 72e2 34b9 7a90 08bd f3a7 393e e3ca 853d
00000030: db50 2e3b a3b5 a23e 261a 9fbd c558 01bf
00000040: 7be4 3abd bb43 3f3e df06 d23d bff0 78be
00000050: d6ec 97be 02a9 fd3d 705a 033e c256 2bbf
00000060: 0a79 313b f872 3b3e c85b 763d 1f8b 98be
00000070: 1836 f2be feb4 a2bd b3bc ad3e bf04 45bf
00000080: fee7 9bb9 22e4 8a3e 8655 7d3b 5251 dabe
00000090: b0d0 09bf 808b f2bd ed03 bc3e d36f 2b3c
000000a0: 0a1c f0bb 5731 563e 538a 343e 47ed c3be
000000b0: 3e9b 44be b9bc 443e 3f7c 7c3e d2c5 753c
000000c0: d7eb 39bd 267d 59be 5132 af3e 56e0 c03d
000000d0: bc74 6c3e 21c1 623e adb1 8cbd 3ca5 28ba
000000e0: e194 7fbb 88c4 76bd 4097 963d 1ee9 7f3e
000000f0: a63a c63b 4fb8 44be dfc5 c6bd e080 d3b9
00000100: 20bb df3b 4690 7e3c ff77 33bd 03c0 a6be
00000110: 53ca 77bd bf76 723d 4768 76be db0a 92bd
00000120: 2a00 1abc 4d88 70be 6a22 e8be 7bc4 06be
00000130: cc14 373f 2f5f 3f3e 10f8 25be 359c aabd
00000140: 4aaa d2bd d2f2 adbd 2e13 94be c403 2d3f
00000150: 4073 443f 7fc5 81bd 6574 2bbe b59d cbbd
00000160: 7021 7abb 10bd f93c 1430 bd3d eb3a 023f
00000170: f98c a03e a88a 0e3d 2beb 26bd e7b6 aebd
00000180: fff3 8b3b 7aa9 43be 5406 f03d 47d9 013e
00000190: 8158 7f3e 45dd 57be 7acb 55be b72e cd36
000001a0: b517 2abc f1be acbd 15a9 cc3d 3776 513e
000001b0: ad69 e83e 1b94 cabd 4b19 7ebe c1f5 81bc
000001c0: 17b2 30bc a774 86be b990 02be fe26 2f3d
000001d0: 1bdd e23e 0d72 b0bd 1950 8ebe 035b 06bd
000001e0: 8737 d4bb b526 13be aa60 35bc 1f58 d4be
000001f0: 4901 503e b10f f03d 58ed 76be c38f 73bd
00000200: 87a7 1d3c 4bf1 163e 12d5 a33e a0e9 3c3e
00000210: 317a eaba bd2e 13be a8fd 98bd 35f3 5abc
00000220: e7a4 863b 9c3d 9c3e 9749 0a3e b123 72bd
00000230: 029d 533e 23ef 223c e06a d7bd 1e4b 5d3c
00000240: 8fcb de3f 9782 493e 166a b2be c914 afbe
00000250: ef8d 1b3e c789 84bd e01f 96bd e061 a2ba
00000260: df11 0b3c 292f c1bd 30a6 e1be a681 fcbe
00000270: b77b 5a3e 253c fbbd 4a19 b2bd b22c 493a
00000280: 249e 1a3c 2dc3 56be 4321 c4be fc09 26be
00000290: bf47 40bd 85f3 b4be ceeb 3bbe fd10 803c
000002a0: ad4a 7bbb dc91 1ebe f22a 0abe 3716 403e
000002b0: e559 77bd 48c9 dbbe 2f7e 24be 24fa bb3d
000002c0: 30c2 81bc 0ead 963e f0b3 393e 0ad7 9f3d
000002d0: 6f91 26bd f694 8b3c a4de e23d 5d1b c73c
000002e0: 2c79 95bc c8b1 953e 15c9 993e 0436 d03d
000002f0: 8fca 963c 1422 133e 7cf5 723e 2cc7 443e
00000300: c9bd 513b f9da b4bb c1b6 ee3d 1478 573e
00000310: 64ee 8bbc 00ad 47be b0c9 2bbd 998d f03c
00000320: dbbe 043a 2c11 b53d 1772 233e eaf8 0fbe
00000330: 6ada 353e b0ff 58be 45d2 b4bd 156a 2ebd
00000340: b134 a8be 92e4 0fbe 71ce 25be ef80 2dbe
00000350: fc3d a93d bd1f 88be d910 9fbd 309f 55bd
00000360: edd8 913a c7d4 2bbe e524 87be 312d 643d
00000370: 2ca0 b9bd b6ae f9bd a648 98bd 1fa1 7abd
00000380: cfb6 d1bc 2f1e 1dbe 8c99 c7bc e468 0a3e
00000390: 3a5e 293e 59d2 8a3e 88f4 aa3d 9b36 113c
000003a0: 0eeb ef39 87b0 02be f88e 89be ee53 30be
000003b0: dd03 21be 18b4 363e 7b8a 083e 96a4 63bc
000003c0: 5608 1e3c 9da2 d0bd bc7b 76be af4e 61be
000003d0: 347a 123e af87 ef3d 8ddc fcbd 5f15 f83b
000003e0: 621c 4c3c 4c93 8fbc 7ab5 343d beae 713d
000003f0: 0788 fabd 0f74 4cbe f710 e0bd f9c3 b6bc
0.0036592816 -0.0025454492 0.042639013 0.15086278 0.038575668 -0.1857268 -0.048753284 -0.00088794023
-0.00017250495 -0.03334091 0.18130474 0.06532838 0.0026598487 0.31779203 -0.07768659 -0.50526077
-0.045628052 0.18678181 0.10255217 -0.24310587 -0.2967288 0.12385751 0.12827468 -0.66929257
0.0027080202 0.18305576 0.060146123 -0.2979364 -0.47306895 -0.07944678 0.3393303 -0.76960367
-0.00029736751 0.27127177 0.0038655712 -0.42640167 -0.53834057 -0.11843014 0.36721745 0.010463673
-0.0073275613 0.20917259 0.17630892 -0.38266966 -0.19199845 0.19212617 0.24656771 0.015000777
-0.04539093 -0.21239147 0.34218076 0.09417789 0.23091406 0.22143985 -0.068698265 -0.0006433313
-0.003899865 -0.06024602 0.073530674 0.24991271 0.006049472 -0.19210933 -0.0970571 -0.00040341076
0.006827727 0.015537327 -0.04381561 -0.32568368 -0.060495686 0.059195276 -0.24063216 -0.07130977
-0.009399453 -0.23489495 -0.45338756 -0.13160889 0.7151611 0.18688653 -0.1620791 -0.083305754
-0.10286386 -0.0849358 -0.28920883 0.6758387 0.7673836 -0.063364975 -0.1674362 -0.099421896
-0.0038166903 0.03048566 0.09237686 0.5087115 0.31357554 0.0348002 -0.040751617 -0.085309796
0.00427103 -0.19107619 0.11719957 0.12680541 0.24936105 -0.21080501 -0.20878401 6.1149144e-06
-0.010381629 -0.08434857 0.09993187 0.20455252 0.45393124 -0.0989153 -0.24814336 -0.015864255
-0.010784647 -0.26260874 -0.1275052 0.042761795 0.44309315 -0.086155035 -0.27795485 -0.03280164
-0.006476346 -0.14370234 -0.01107041 -0.4147348 0.2031299 0.11721743 -0.24113977 -0.059463274
0.009622461 0.14740483 0.31998497 0.18448496 -0.0017889199 -0.14373298 -0.07470256 -0.013363649
0.0041090134 0.30515754 0.13504635 -0.05911607 0.20665362 0.00994471 -0.10518432 0.013506679
1.7405871 0.19678722 -0.34846562 -0.34195545 0.15190862 -0.064715914 -0.073302984 -0.0012388788
0.0084881475 -0.09432823 -0.44072104 -0.49317664 0.21336256 -0.12267331 -0.0869623 0.00076742016
0.009437118 -0.20972891 -0.38306627 -0.16214746 -0.046943422 -0.3534204 -0.18351671 0.0156331
-0.003834407 -0.15485328 -0.13492945 0.18758474 -0.060388464 -0.42927003 -0.1606376 0.0917857
-0.015839666 0.29428905 0.18135047 0.07804687 -0.04066604 0.017038804 0.110776216 0.02430504
-0.018246256 0.292372 0.30036226 0.10166553 0.018407134 0.14368469 0.23726457 0.19216603
0.003200399 -0.0055192676 0.11655951 0.210419 -0.017081447 -0.19499588 -0.04194039 0.029364394
0.000506384 0.08841166 0.1596149 -0.14059797 0.177591 -0.21191287 -0.08829168 -0.042581636
-0.328527 -0.14052036 -0.16192032 -0.16943716 0.08263776 -0.26586714 -0.07766885 -0.052153766
0.0011127271 -0.16780387 -0.26395336 0.05570716 -0.090637535 -0.121915266 -0.074357316 -0.061188813
-0.025599865 -0.15343545 -0.024365209 0.13516575 0.16539851 0.27113608 0.08347422 0.008863117
0.00045760762 -0.12762652 -0.2686689 -0.17219517 -0.1572413 0.17842138 0.13334076 -0.013894221
0.009645542 -0.10187266 -0.24070638 -0.22002672 0.1430443 0.116958015 -0.12346754 0.007570907
0.012457939 -0.017526291 0.044118382 0.059004538 -0.122329764 -0.19966148 -0.10940736 -0.022310244

bias f4 [10]
00000000: e682 17b9 465a 373e 9ceb c13a 7706 7abd
00000010: beb9 9abd ebc2 86be f4df ad3c b97a d8bd
00000020: b5cf b83e f5c7 69bd
-0.00014449246 0.1790553 0.0014794949 -0.06104132 -0.07554959 -0.26320586 0.021224953 -0.105702825
0.36095968 -0.05707546
