experiments/checkpoints/initial_model.pth (torch, 4501 bytes, 2 tensors)

weight f4 [10, 64]
00000000: 13ad 46b9 2954 c3bc 1cfd 5f3d 93d5 c73d
00000010: 18d3 8b3d 22ff 1ebe 5d55 93bd 1987 a6bc
00000020: 3e4e 37bb 28f2 d4bc 76eb 4f3e b97e 8c3d
00000030: 9577 dfbc 30c6 953e 8ccc d3bc 9baa 5a3c
00000040: 2a39 fd3b ba3e 4f3e 289b db3d 4489 8abe
00000050: e5c7 9ebe 39ae c13d 3319 823e 35bf f7b8
00000060: ae54 503b 6321 653e 6594 383d 9e7d 95be
00000070: fbff d5be e28f b6bd 6618 c93e 6fb8 1d3c
00000080: b8e2 d1ba 74c4 8f3e a101 933c d1f3 c5be
00000090: a35b 04bf e05a b1bd 6365 ce3e b4d6 80bc
000000a0: 86cb 8fbc 0864 243e 6e8a d63d f610 ddbe
000000b0: 3ef2 79be 77b1 5c3e 29ef 893e b2f0 dbbb
000000c0: 7803 5a3c 80a0 19be 5ae0 9b3e 5614 403d
000000d0: da78 743e 67ef 5b3e 6993 f7bd 4a92 ca3b
000000e0: 183c ca3b 1014 efbc a69d 823d ad43 523e
000000f0: 1416 083c add1 49be 97a1 bcbd 74eb 67bb
00000100: aa4b 723a 9b2a 783c fe17 f9bc b193 a3be
00000110: 4f39 65bd afbf 903c f8f5 7ebe 60cf babd
00000120: 1483 20ba e820 48be 4d36 d2be f740 27be
00000130: 3881 473f 676e 0d3e d894 4cbe d051 24bd
00000140: 570b 17bb bd5d bcbd 65af 9fbe 83c9 223f
00000150: b6e1 433f 2ed2 eebd 4775 2cbe 9f08 52bc
00000160: 1f6a 513b eead 3a3c 62e3 213d 2154 053f
00000170: 83e0 993e 7959 01bd 8ba7 90bd 70e1 acbc
00000180: 6988 10bc 92ba 67be 74c4 cc3d c297 493e
00000190: 5bc7 8e3e a2c0 26be 2f46 47be 520a 27bc
000001a0: 1e23 a6bc ee95 b8bd 7667 4b3d 11bd 323e
000001b0: 3779 da3e aaa2 a4bd d23c 6bbe acb3 22bd
000001c0: e139 16bb 29c0 92be 0fe3 2fbe c3bd 913b
000001d0: 8bbe e93e 8500 8abd 2e91 9abe c9bd b8bc
000001e0: 3103 50bc 984b 2bbe ff81 78bc d943 cdbe
000001f0: e9b8 2e3e f5d3 823d b4fe 6abe c82d 96bd
00000200: ce7f 243b 589a d83d 5462 ae3e e10f 4f3e
00000210: 7a6b dd3c 7242 04be be0e 30bd 373d 9cbc
00000220: ca58 983b 214d 433e 320f 9e3d e42c 9fbd
00000230: 9ba0 2a3e cc9c 003d 3415 d4bd 4821 37ba
00000240: f193 0e3b 738e f0bd 2c61 c5be feb5 90be
00000250: 3bb1 f63d 8d57 9cbd 02be 40bd d489 a63b
00000260: 14d1 65bc d492 17be 6718 d8be b2da c7be
00000270: 2972 f63d 6985 9abd f12c 80bd fb54 5a3b
00000280: 4653 9c3b 298f 20be 0205 a3be 2013 a6bd
00000290: 7682 ba3a c438 49be 1380 cdbd c675 4e3a
000002a0: f0e3 213b a12b 0dbe 1d0e 07be 60a0 003e
000002b0: b05c aebd 8579 9cbe 7254 dabd 08d6 9c3b
000002c0: 186e 78bc 9519 933e 8eeb 713e 82b5 54bd
000002d0: 15f3 e8bc b8cd 293d e337 a93c 8185 aa3c
000002e0: 9742 08bc 11fc b13e 3855 b53e c7f2 823d
000002f0: b493 9ebc d5b3 933d 1eec bb3c 1047 1eba
00000300: 795f a5ba 6453 683d f9ae 7f3d 2951 833d
00000310: 23ea 18bd 9bda 92bc 505a b93c 8f9b 2d3c
00000320: 7fa9 073c 1908 8a3d dab8 203d 3d3d 433d
00000330: 6909 6f3d 9699 31bd aed0 05bc 125e ac3c
00000340: dbc4 ef3a 957e 433d 2185 73bc 1894 05bd
00000350: c67c cabb 4537 3dbd f7dd fe3c 118e d33c
00000360: 8e6e 8ebb b6db f0bc 5cc4 d3bc 1aac f3bc
00000370: e40a dcbc 4a06 d43c e92c 183d 8931 413c
00000380: 58cd dfba f01a 8bbd 5b36 febc 5e3e 10bd
00000390: 898c 893b 32cc f13c 76ae 303d de6f c03b
000003a0: fcca 3c3c 7fef 30bd 5b64 d1bd 0990 98bd
000003b0: bdaf 993a 2c60 073d 53f9 123d 49c9 583c
000003c0: 0c38 b03b ba35 00bd 4585 9bbd eda4 14bc
000003d0: 5cc8 113d c6b6 59bb e7d4 f83c a893 5c3d
000003e0: 2201 f83b 66ae 913c 5604 8f3d b29a 553c
000003f0: 67cb 953a fb4e 003c 90f6 be3c b7bf 6b3d
-0.00018947227 -0.023843842 0.054684743 0.09757533 0.06827372 -0.15527013 -0.07194016 -0.020328091
-0.002797022 -0.025994375 0.20304665 0.06860108 -0.0272787 0.29252768 -0.025854371 0.01334634
0.0077277618 0.20238772 0.10722953 -0.2705785 -0.31011882 0.094570585 0.2540985 -0.00011813493
0.0031788754 0.22376017 0.045063395 -0.291974 -0.4179686 -0.08914162 0.39276427 0.009626492
-0.0016013002 0.2807957 0.017945113 -0.3866258 -0.51702327 -0.08659911 0.40311727 -0.015727378
-0.017553102 0.16053784 0.10475622 -0.43177003 -0.24408814 0.21552072 0.26940277 -0.0067120427
0.013306491 -0.15002632 0.30444604 0.046894394 0.23874226 0.21478043 -0.12088663 0.00618199
0.0061717145 -0.029184371 0.06377725 0.20533629 0.008306045 -0.19708891 -0.09210508 -0.0035388144
0.0009242842 0.015146877 -0.030406948 -0.31948617 -0.055962857 0.017669527 -0.24898517 -0.09121585
-0.0006123048 -0.19543803 -0.41057053 -0.16333376 0.7793155 0.13811646 -0.19978654 -0.040117085
-0.002304753 -0.09197567 -0.31188503 0.6358873 0.7651628 -0.11661182 -0.16841613 -0.012819438
0.0031954122 0.011394007 0.03952349 0.52081496 0.300541 -0.03157947 -0.07063206 -0.02110359
-0.008821585 -0.22629765 0.09998408 0.19686797 0.2788647 -0.16284421 -0.19460367 -0.010195332
-0.020280417 -0.09012972 0.049659215 0.17454936 0.42670605 -0.08038838 -0.2297242 -0.03972213
-0.0022922682 -0.28662232 -0.1717646 0.00444767 0.45653185 -0.0673838 -0.30188888 -0.022551434
-0.012696073 -0.16728055 -0.015167712 -0.40090826 0.17062725 0.06388084 -0.22948724 -0.07332951
0.0025100592 0.10576314 0.34059393 0.20220901 0.027028788 -0.12915972 -0.04298281 -0.019072158
0.0046492564 0.19072391 0.07717742 -0.07772234 0.16662829 0.031399533 -0.10355607 -0.0006985855
0.002175566 -0.1174592 -0.385507 -0.2826385 0.12045523 -0.076338865 -0.047056206 0.0050823484
-0.014026899 -0.14802104 -0.42206118 -0.3903404 0.12033493 -0.07544977 -0.06258572 0.0033314812
0.004770669 -0.15679611 -0.31839758 -0.081091166 0.0014229554 -0.1965056 -0.10034194 0.0007875826
0.0024702512 -0.13786174 -0.13188978 0.12561178 -0.085137725 -0.30561462 -0.10660638 0.0047862567
-0.015162967 0.28730455 0.23625013 -0.05193091 -0.028436223 0.041455954 0.020656532 0.020815613
-0.0083166575 0.34762624 0.3541658 0.06393962 -0.01935754 0.072120346 0.022939738 -0.0006037811
-0.0012616954 0.056720152 0.062422726 0.064119644 -0.037332665 -0.017926505 0.022626072 0.01059617
0.008280157 0.06739826 0.03923879 0.047665823 0.058358584 -0.04335936 -0.008167429 0.02104095
0.001829292 0.04772814 -0.014863283 -0.032611936 -0.006179425 -0.046195287 0.0311117 0.025824578
-0.0043466752 -0.029401641 -0.025850467 -0.02974515 -0.026860662 0.025881905 0.037152205 0.011791595
-0.0017074747 -0.06792247 -0.031031778 -0.035215728 0.0041976613 0.029516313 0.04313513 0.0058727106
0.011523005 -0.04319715 -0.102242194 -0.074493475 0.0011725348 0.0330507 0.035882305 0.013231584
0.005377775 -0.031301238 -0.075937785 -0.0090725245 0.03559147 -0.0033220514 0.030374957 0.053851753
0.0075684944 0.017783355 0.06983249 0.0130373705 0.0011428416 0.00783133 0.02331093 0.05755588

bias f4 [10]
00000000: e255 243d d20f 613e fafa 07bd 2570 60be
00000010: 2c19 e8bd a3b2 63be 82a5 473d 9aec 91bd
00000020: e079 c63e 7b78 17bd
0.040120967 0.21978691 -0.033198334 -0.2191778 -0.11332926 -0.22236113 0.048741825 -0.07125206
0.38764858 -0.036980134
